…
/conda/lib/python3.10/site-packages/geoopt/manifolds/symmetric_positive_definite.py:52: UserWarning: SPDMetric.LEM is not fully implemented and results may be not as you expect\n  warnings.warn(\n","output_type":"stream"},{"execution_count":13,"output_type":"execute_result","data":{"text/plain":"LogEucRResNet_Combo(\n  (model_temp): LogEucRResNet(\n    (manifold_Stiefel): Stiefel(canonical) manifold\n    (manifold_SPD): SymmetricPositiveDefinite(default_metric=SPDMetric.LEM) manifold\n    (classiflayer): BusemanSimilarityClassifier(\n      (manifold): Stiefel(canonical) manifold\n      (linear): Linear(in_features=8, out_features=7, bias=True)\n    )\n    (fc_layer): Linear(in_features=3249, out_features=7, bias=True)\n    (softmax): Softmax(dim=-1)\n    (spectrum_map): Sequential(\n      (0): Conv1d(1, 10, kernel_size=(5,), stride=(1,), padding=same)\n      (1): LeakyReLU(negative_slope=0.01)\n      (2): BatchNorm1d(10, eps=1e-05, momentum=0.1, affine=True, track_running_stats=True)\n      (3): Conv1d(10, 5, kernel_size=(3,), stride=(1,), padding=same)\n      (4): LeakyReLU(negative_slope=0.01)\n      (5): BatchNorm1d(5, eps=1e-05, momentum=0.1, affine=True, track_running_stats=True)\n      (6): Conv1d(5, 1, kernel_size=(3,), stride=(1,), padding=same)\n    )\n  )\n  (model_spectral): LogEucRResNet(\n    (manifold_Stiefel): Stiefel(canonical) manifold\n    (manifold_SPD): SymmetricPositiveDefinite(default_metric=SPDMetric.LEM) manifold\n    (classiflayer): BusemanSimilarityClassifier(\n      (manifold): Stiefel(canonical) manifold\n      (linear): Linear(in_features=8, out_features=7, bias=True)\n    )\n    (fc_layer): Linear(in_features=64, out_features=7, bias=True)\n    (softmax): Softmax(dim=-1)\n    (spectrum_map): Sequential(\n      (0): Conv1d(1, 10, kernel_size=(5,), stride=(1,), padding=same)\n      (1): LeakyReLU(negative_slope=0.01)\n      (2): BatchNorm1d(10, eps=1e-05, momentum=0.1, affine=True, track_running_stats=True)\n      (3): Conv1d(10, 5, kernel_size=(3,), stride=(1,), padding=same)\n      (4): LeakyReLU(negative_slope=0.01)\n      (5): BatchNorm1d(5, eps=1e-05, momentum=0.1, affine=True, track_running_stats=True)\n      (6): Conv1d(5, 1, kernel_size=(3,), stride=(1,), padding=same)\n    )\n  )\n  (classiflayer_temp): BusemanSimilarityClassifier(\n    (manifold): Stiefel(canonical) manifold\n    (linear): Linear(in_features=8, out_features=7, bias=True)\n  )\n  (classiflayer_spec): BusemanSimilarityClassifier(\n    (manifold): Stiefel(canonical) manifold\n    (linear): Linear(in_features=8, out_features=7, bias=True)\n  )\n  (fc_layer): Linear(in_features=14, out_features=7, bias=True)\n  (softmax): Softmax(dim=-1)\n)"},"metadata":{}}]},{"cell_type":"code","source":"#setup loss and optimizer\n\nif loss == \"focal\":\n    loss_fn = FocalLoss(gamma=gamma_loss,weights=weights)\nelse:\n    loss_fn = nn.CrossEntropyLoss(weights=weights)\n#opti = MixOptimizer(model.parameters(),lr=lr)\nopti = geoopt.optim.RiemannianAdam(model.parameters(), lr
…
